artifacts/energy_model.tflite (tflite, 7928 bytes, 5 tensors)

arith.constant f4 [64]
000000 6c 33 fd 3c 04 3a d9 bc c7 3e f9 3c 85 64 bf 3c
       0.030908309 -0.026516922 0.030425442 0.023363361
000010 d7 69 dd bb 30 fd 05 3b 57 be cf bc 82 43 89 bc
       -0.006757002 0.00204451 -0.025359316 -0.016755823
000020 aa 83 e5 3c 99 f1 f9 bc 39 bb ff 3c 4a 02 14 bc
       0.028016884 -0.03051071 0.031217204 -0.009033749
000030 8f c9 66 bc 71 ac 04 3d ff a9 f8 3c af 35 bc bc
       -0.014086141 0.032391015 0.030354498 -0.022974817
000040 4d f1 8b bc 69 40 e3 3c 2f 2b ac 3c 2d c9 96 bc
       -0.017082835 0.027740674 0.021016685 -0.018406475
000050 7c d5 00 3d 02 30 01 bd 6e 46 e8 3c 5c b2 06 3d
       0.031453595 -0.031539924 0.028353896 0.03288494
000060 c0 5a e9 bc b1 47 e3 bc 91 c3 4b bc ee ea b9 bc
       -0.028485656 -0.027744146 -0.012436763 -0.022695031
000070 2c 73 f1 3c ad f5 b3 3c f7 8f 04 3d fd 26 a4 3c
       0.029473864 0.021967733 0.032363858 0.020038122
000080 b4 0e 13 3d d0 20 10 3d 9c 87 da 3c 48 e3 c3 3c
       0.035902694 0.035187542 0.026675992 0.023912087
000090 d4 28 fe 3c 4b 54 f6 3c 08 de 89 3c 28 8f 8b bc
       0.031025328 0.03006949 0.016829506 -0.017036036
0000a0 64 d9 d3 3b 34 f0 da 3c f3 e1 ef 3c ba 6b fc 3c
       0.006465124 0.026725866 0.029282546 0.030813087
0000b0 77 c0 07 3d 44 2f 06 bd d1 75 a7 bc 9c 27 eb 3c
       0.033142533 -0.03275992 -0.020441921 0.02870541
0000c0 8d 8d 09 3d 5c 2d bf bc 47 1e 07 3d 09 7f e7 3c
       0.03358226 -0.023337059 0.03298786 0.028258817
0000d0 a7 e1 94 bc 31 1c 80 3c 41 01 b1 bc e0 15 03 3d
       -0.018174006 0.015638443 -0.021607043 0.032003284
0000e0 57 eb f8 3c 22 05 e9 3b 69 8d 08 3d 61 ee 0e 3c
       0.030385656 0.0071112076 0.033337984 0.008723826
0000f0 d7 40 01 3d b9 ad ec 3c b4 79 04 3d d1 0b fe 3c
       0.031555977 0.028891431 0.032342628 0.031011494

arith.constant1 f4 [64, 12]
000000 18 b3 09 be db 64 92 3c 95 d6 34 3e 4c 2f 6b 3e
       -0.13447225 0.017870357 0.17659982 0.22967261
000010 63 6f 2a be a1 7f 54 3e 1a 32 95 3e 6d 75 47 be
       -0.16644053 0.20751812 0.29139787 -0.19478388
000020 27 e8 35 be 1a 31 8e be c4 c0 74 3e a9 69 d9 bb
       -0.1776434 -0.27771837 0.23901659 -0.00663491
000030 95 8d 78 bd 3a 0e 20 be c4 4c 0f be 8d 42 5c be
       -0.0606819 -0.15630427 -0.13994128 -0.21509762
000040 29 d1 4e be 1e 92 4a bc 83 63 d7 3d 07 61 41 3e
       -0.20196976 -0.012363939 0.10517027 0.18884669
000050 4a 67 1d be c4 3c ba bd ab 3a 53 3e 70 60 1f be
       -0.15371433 -0.090936214 0.20627849 -0.15564132
000060 f8 f2 16 3e b4 99 4c 3e 2f 92 4f be 08 8e 30 3d
       0.14741123 0.19980508 -0.20270608 0.0431042
000070 f1 96 ba 3d 00 4e 26 3d a2 94 46 3d 80 ef a2 bc
       0.09110821 0.04060173 0.04848159 -0.019889593
000080 fe 98 bb bc b6 86 51 3e 97 80 80 3e 6b 9a 37 bd
       -0.0229001 0.20461544 0.25098106 -0.044825
000090 8d 4b 69 3e f5 87 d7 bd d3 8b 65 be 96 a0 03 3e
       0.22782727 -0.105239786 -0.2241662 0.12854227
0000a0 97 c6 82 be 0e 41 88 be 43 54 0c 3d c9 d9 ce 3d
       -0.25542137 -0.26612133 0.034260046 0.10100133
0000b0 26 b3 18 3c 3c 48 6b 3e 59 a7 ed 3c cc 86 d7 3d
       0.009320056 0.22976774 0.029010462 0.10523757
0000c0 f7 37 ef 3c cb 07 21 be 87 16 c4 bd 33 4d 90 be
       0.02920149 -0.15725629 -0.09574609 -0.28183898
0000d0 37 93 83 3e 52 e7 6c 3e 2f d7 19 bd 4c fa f9 bc
       0.25698254 0.23135117 -0.03755873 -0.030514859
0000e0 d8 79 4e 3e 77 2c 72 3e b1 f1 b2 3d c5 46 6b 3e
       0.20163667 0.23649774 0.08737505 0.22976215
0000f0 5d 06 fe bd 1a 68 f2 3d b3 29 40 be 1d 0c a5 bd
       -0.124035574 0.11836262 -0.18765907 -0.08058951
000100 4a a8 41 3c af 68 9a 3d be bd 43 be 66 6b e3 3d
       0.011819908 0.07539498 -0.1911535 0.11104469
000110 58 e9 19 3e 5d 70 86 bd 86 bb 0d 3e 26 11 44 3c
       0.1503042 -0.065644 0.13841066 0.011966979
000120 ab d9 f4 3d c2 86 ef bd c2 78 16 be ad 1f 50 be
       0.11955579 -0.11695625 -0.14694503 -0.20324583
000130 46 ab 6e 3e bf 44 da bd 7d e8 b4 bd 76 3f e3 bd
       0.23307523 -0.106576435 -0.08833406 -0.110960886
000140 c5 40 1c 3e 02 00 6d 3e 85 3e e9 3d 04 14 e1 bd
       0.15259083 0.23144534 0.11388878 -0.10990146
000150 94 71 06 3e 07 3a 6e bd 4e e2 60 be cd 3f 56 be
       0.13129264 -0.058160808 -0.21961328 -0.20922776
000160 b4 a1 0a be 6d 78 a4 3c 23 4b f1 3d 82 4f ae bd
       -0.13538247 0.020076955 0.11781909 -0.08511259
000170 4b b9 de 3d 65 32 14 3c 49 53 88 be ff fc 25 3e
       0.108751856 0.009045218 -0.26626042 0.16209792
000180 83 98 f8 3d 15 42 80 be 98 ff 34 3e 4d a1 0a be
       0.12138464 -0.25050417 0.17675626 -0.13538094
000190 67 1a 14 be 87 75 1f 3e 76 91 e1 bd 8f 36 c6 bd
       -0.14463197 0.15572177 -0.110140726 -0.09678375
0001a0 59 b9 88 3e 86 06 e6 3c 4e 3f 86 3e e8 e0 9c be
       0.2670391 0.028079282 0.26220173 -0.3064034
0001b0 ee 56 34 be 27 27 d7 bd 7a cc 09 bd 44 a6 68 3c
       -0.17611286 -0.105055146 -0.03364227 0.014199797
0001c0 1a 8e 96 3d 3c 22 b0 bc db 29 b0 bd 07 d5 65 3c
       0.073513225 -0.0215007 -0.08601733 0.01402784
0001d0 b6 cc 0a be 65 87 71 bd c9 9d 5e 3e e2 ad 2f 3d
       -0.13554654 -0.058967013 0.21739878 0.042890437
0001e0 ee 59 46 bd cc 01 78 3e 6e d6 55 3e be 66 e1 3a
       -0.048425607 0.24219435 0.2088258 0.0017196757
0001f0 c2 f4 41 be 61 f7 76 bd 72 75 85 3e a9 db 19 bd
       -0.18941024 -0.060294513 0.26066166 -0.037563
000200 d9 5b 2c be 58 ee 76 3e ee 14 84 3e f3 0b 81 be
       -0.16831912 0.24114358 0.25797218 -0.2520443
000210 1e 67 56 3e 76 3d 0b bd 00 86 0d 3e 7b be 07 3e
       0.20937774 -0.03399416 0.13820648 0.13256256
000220 09 4b 51 be cc 65 34 be 99 51 e2 bb 9e 0e 37 be
       -0.2043878 -0.17616957 -0.0069067 -0.1787667
000230 b8 fb 57 3e 08 01 40 3e f0 4a 2e be 94 18 09 be
       0.21092117 0.18750393 -0.17020774 -0.13388282
000240 16 cb cc 3d 83 e3 70 3e 58 0c 0e 3e f4 f0 70 3c
       0.09999673 0.23524289 0.13871896 0.014705885
000250 d7 e0 cf bd fb 62 33 3e 99 4d 59 3e b7 f8 4a 3d
       -0.10150307 0.17518227 0.21221007 0.0495536
000260 6a d4 b8 bd db 0f b3 bd eb 4f 91 be ac e0 d5 3c
       -0.0902489 -0.087432586 -0.28381285 0.026108108
000270 2f c4 03 be b1 b1 46 3e 96 f7 5d 3e 83 4d 6a be
       -0.12867807 0.19403721 0.21676478 -0.22881131
000280 51 e8 32 3d bb 8e 98 3e 3c df 11 3e a0 4a 2c be
       0.043678585 0.29796395 0.14245313 -0.16825342
000290 25 f0 11 be 35 7e d1 3b cc 4c 78 bc ef a8 85 3e
       -0.14251764 0.006393219 -0.015155029 0.2610545
0002a0 1e ce 2d 3d 28 a2 73 3e 1d c2 3d 3e f6 f0 00 bd
       0.042432897 0.23792326 0.1853108 -0.0314798
0002b0 79 66 c6 3d 95 8b 93 3e bd 21 ec bd d9 10 f1 3d
       0.09687514 0.2881743 -0.115298726 0.117707916
0002c0 c7 d9 1f be 1d fe 95 3e c8 96 78 3e 85 1b 91 3d
       -0.15610419 0.29295436 0.24276268 0.07085327
0002d0 a7 c3 87 3e ce 3e a4 3c 9a 66 9b bc ba 22 42 be
       0.26516458 0.020049479 -0.018969823 -0.1895856
0002e0 b6 cd 22 bd 7f 12 bf 3d 39 eb b2 bd 59 63 cb bd
       -0.039746962 0.093297 -0.087362714 -0.099310584
0002f0 9d 87 73 3d 36 47 2b bd e2 22 70 be db 9f 6c 3e
       0.059455503 -0.04181596 -0.23450807 0.23107855
000300 7d 19 64 be 0b c0 e3 bd 94 4f 4e be 9a ed 50 3d
       -0.22275348 -0.11120614 -0.20147544 0.051007845
000310 6d 3d 80 be 89 74 72 3e 8e d5 fc ba 13 dd 62 3e
       -0.25046864 0.23677267 -0.0019289718 0.22154646
000320 b6 f1 f7 bd 22 81 f2 3d 8a 08 6e 3d d8 ab eb bd
       -0.121066496 0.118410364 0.058113612 -0.11507386
000330 61 71 ac bd ed 90 81 3e eb bd 44 3e 6e 14 7e be
       -0.08420063 0.25305882 0.19213073 -0.24812481
000340 65 6c 38 bd 51 51 bd 3d e7 94 68 bd 97 d1 6c bc
       -0.045025248 0.092440255 -0.05678263 -0.014454267
000350 e6 07 7d 3d 26 ad 8d bc 2e 8d 06 3e 5f 02 79 3e
       0.06177511 -0.017294478 0.13139793 0.24317311
000360 3a 56 26 3d 9a 0d 17 3e 91 dd 05 bc c9 43 83 3e
       0.040609576 0.14751282 -0.008170501 0.25637653
000370 32 be a5 bd e8 7b 3c 3d 82 03 96 be 64 b4 6d be
       -0.080929175 0.046016604 -0.2929955 -0.23213345
000380 3f d9 76 be 3a 95 61 be 11 46 77 be d4 2b 5c 3c
       -0.2410631 -0.22029582 -0.24147822 0.013438184
000390 b7 b7 68 3e 21 bf 64 be 2f ca ea bd 73 7f 17 3d
       0.22726332 -0.22338535 -0.11464345 0.03698678
0003a0 52 e4 4d be c8 bb 12 bb 49 ac 3a 3e ef c3 5a be
       -0.20106629 -0.0022389758 0.18229784 -0.21363805
0003b0 32 f8 7c 3e 5e e6 bd 3d 3d cc 63 3e b0 60 56 3e
       0.24704054 0.09272455 0.2224588 0.20935321
0003c0 5b 74 4f be e8 b5 8e bb 3b 8c 41 3d c8 c4 87 be
       -0.2025923 -0.004355181 0.047252875 -0.2651732
0003d0 4e 26 eb bd 4d eb 04 be 42 9a 6a 3e e4 01 8b 3d
       -0.114819154 -0.12980385 0.22910407 0.0678747
0003e0 7c 67 bd bd 48 ec 3c 3e 07 0d 40 3e 43 56 f0 3d
       -0.09248254 0.18449509 0.1875497 0.11735203
0003f0 ad 7e 56 3e dc 4a 0f be 75 3f 83 be 26 d1 44 3e
       0.2094676 -0.139934 -0.2563435 0.19220409

arith.constant2 f4 [32]
000000 c2 32 c9 bc 29 80 dc bc ad cd b0 bc a0 82 06 3d
       -0.024560336 -0.02691658 -0.021582449 0.032839417
000010 4a 06 0b 3d 81 8f 9b bc cb d1 03 3d e2 a0 12 3d
       0.033941545 -0.018989326 0.032182496 0.03579796
000020 c1 8f 06 3d 5a b8 c3 bc 49 80 c3 bc a0 a5 de bc
       0.03285194 -0.023891617 -0.023864882 -0.027178586
000030 ba ba c9 bc 56 ae 07 3d 99 a4 d0 bc ff 6d a6 bc
       -0.024625171 0.033125244 -0.025469111 -0.020316122
000040 0a 24 e7 bc 5a e2 c6 bc 59 e8 0d 3d 26 7a e4 bc
       -0.028215427 -0.024277855 0.034645412 -0.027890276
000050 ca 4c c6 bc 35 1a 06 3d 32 82 0e 3d a1 8e e5 bc
       -0.024206538 0.032739837 0.034792133 -0.028022112
000060 2d d9 c9 bc 01 9e a6 bc 70 86 09 3d 93 5d c7 bc
       -0.02463969 -0.020339014 0.033575475 -0.024336612
000070 f4 a8 04 3d 12 74 05 3d ad 42 08 3d 48 19 08 3d
       0.03238769 0.032581396 0.033266712 0.033227235

arith.constant4 f4 [1, 32]
000000 93 f2 a5 be 4a 24 98 be 80 9e 98 bc 3a e1 31 3e
       -0.32411632 -0.29715186 -0.018630266 0.17371073
000010 23 1e 28 3e 4c a8 bb be 2d 37 89 3e f8 0b a0 3d
       0.16417746 -0.36651838 0.26799908 0.07814783
000020 59 f1 5e 3e c5 93 f8 bc d8 b3 1d bb 38 07 af be
       0.21771754 -0.0303439 -0.0024063494 -0.34185195
000030 28 92 c1 be 57 97 af 3e 10 1e 96 be e2 d3 cd be
       -0.3780682 0.3429515 -0.2931981 -0.40200716
000040 85 cd 11 be c7 38 94 bd 2d 38 57 3d 46 87 42 be
       -0.14238556 -0.07237392 0.052543808 -0.18996915
000050 e2 ac fb b9 58 64 80 3e e4 15 d0 3e 60 ee 88 be
       -0.00048003258 0.25076556 0.406417 -0.26744366
000060 a3 9e c5 be 94 f8 87 bd c5 ee 98 3d 5e d6 9b be
       -0.38597593 -0.066392094 0.07467417 -0.30436987
000070 bd 82 dc 3e 54 24 46 3e ca 14 93 3e 07 f2 5d 3e
       0.43068495 0.19349796 0.28726798 0.21674357

tfl.pseudo_qconst i1 [32, 64]
000000 07 f3 a6 a0 07 41 81 93 0a c3 8c 57 18 ad 6a 48
       7 -13 -90 -96 7 65 -127 -109 10 -61 -116 87 24 -83 106 72
000010 4d bf e8 34 d8 8f d6 e2 ef 57 62 f5 d6 a5 2d 62
       77 -65 -24 52 -40 -113 -42 -30 -17 87 98 -11 -42 -91 45 98
000020 df f5 07 20 19 5f 14 3d 24 f2 92 81 2f 40 18 8a
       -33 -11 7 32 25 95 20 61 36 -14 -110 -127 47 64 24 -118
000030 b1 c4 23 bb 2d 57 63 fa f9 ac df 9a c0 db ce 84
       -79 -60 35 -69 45 87 99 -6 -7 -84 -33 -102 -64 -37 -50 -124
000040 26 bf e3 d0 53 eb 96 b0 b5 21 de 27 a5 e7 81 44
       38 -65 -29 -48 83 -21 -106 -80 -75 33 -34 39 -91 -25 -127 68
000050 4a b3 c8 1f e5 59 9b 1c 32 51 00 ba 1f ba 69 4c
       74 -77 -56 31 -27 89 -101 28 50 81 0 -70 31 -70 105 76
000060 d3 e7 da a5 42 f0 2b 5d 3a 9b a5 5e f9 c7 d1 f5
       -45 -25 -38 -91 66 -16 43 93 58 -101 -91 94 -7 -57 -47 -11
000070 a2 40 93 96 16 42 e0 2f 8b cf 65 0e 46 0b bd 59
       -94 64 -109 -106 22 66 -32 47 -117 -49 101 14 70 11 -67 89
000080 af ef 1a 47 1d 87 63 55 3a 85 66 10 90 63 ec 81
       -81 -17 26 71 29 -121 99 85 58 -123 102 16 -112 99 -20 -127
000090 19 81 e0 d1 a5 0b 90 0a 17 8f df d0 b7 86 ee 09
       25 -127 -32 -47 -91 11 -112 10 23 -113 -33 -48 -73 -122 -18 9
0000a0 97 15 21 64 f3 ea fb 3c 91 54 30 fa 3b c0 f4 c9
       -105 21 33 100 -13 -22 -5 60 -111 84 48 -6 59 -64 -12 -55
0000b0 4a e5 d1 4b 21 a4 a1 a1 c8 32 9c 10 a3 87 6b 8b
       74 -27 -47 75 33 -92 -95 -95 -56 50 -100 16 -93 -121 107 -117
0000c0 06 7f 16 3d 2d c4 db 26 10 23 fb 7a a3 4b 15 5f
       6 127 22 61 45 -60 -37 38 16 35 -5 122 -93 75 21 95
0000d0 a0 f6 63 26 4b 02 b4 c9 5e 3e 70 ad 49 d2 bb 1c
       -96 -10 99 38 75 2 -76 -55 94 62 112 -83 73 -46 -69 28
0000e0 4f 7d 79 7c 0e 1f 9d 2b 4d e4 77 a9 58 c1 0c 14
       79 125 121 124 14 31 -99 43 77 -28 119 -87 88 -63 12 20
0000f0 60 6c bb 4a 57 58 fb ee 5b 4e 51 c3 a7 4c 35 af
       96 108 -69 74 87 88 -5 -18 91 78 81 -61 -89 76 53 -81
